Model: "sequential_163"
_________________________________________________________________
Layer (type)                 Output Shape              Param #   
=================================================================
conv1d_326 (Conv1D)          (None, 559, 128)          512       
_________________________________________________________________
max_pooling1d_326 (MaxPoolin (None, 279, 128)          0         
_________________________________________________________________
conv1d_327 (Conv1D)          (None, 277, 128)          49280     
_________________________________________________________________
max_pooling1d_327 (MaxPoolin (None, 138, 128)          0         
_________________________________________________________________
dropout_163 (Dropout)        (None, 138, 128)          0         
_________________________________________________________________
flatten_163 (Flatten)        (None, 17664)             0         
_________________________________________________________________
dense_489 (Dense)            (None, 64)                1130560   
_________________________________________________________________
dense_490 (Dense)            (None, 32)                2080      
_________________________________________________________________
dense_491 (Dense)            (None, 12)                396       
=================================================================
Total params: 1,182,828
Trainable params: 1,182,828
Non-trainable params: 0
_________________________________________________________________
3162/3162 - 1s - loss: 2.4782 - accuracy: 0.1584
Test label: STANDING
Predicted label:SITTING
false

Test label: STANDING
Predicted label:SITTING
false

Test label: STANDING
Predicted label:SITTING
…
